model.pth (torch, 1951 bytes, 4 tensors)

linear_one.weight f4 [32, 1]
0	0xbef14cea	-0.47128993
1	0xbf98e382	-1.194443
2	0xbece92e2	-0.40346438
3	0xbe8ef828	-0.27923703
4	0xbf240b0a	-0.64079344
5	0xbed5da52	-0.41768128
6	0xbe64f798	-0.22360075
7	0xbe933e61	-0.2875853
8	0xbef79cf4	-0.48361933
9	0xbebacd57	-0.36484787
10	0xbe2afe3b	-0.16698544
11	0xbf7c5e36	-0.98581254
12	0xbebc8878	-0.36822867
13	0xbf69cae4	-0.9132521
14	0x3da7cc10	0.08193219
15	0xbf7a7c94	-0.9784634
16	0x3e89355c	0.26798522
17	0xbd6a746f	-0.057239946
18	0xbc904600	-0.017611504
19	0xbf7b8e4c	-0.98264
20	0xbf2c2a96	-0.6725248
21	0xbe975ac5	-0.2956144
22	0xbec2c370	-0.38039732
23	0xbf233586	-0.63753545
24	0x3f28f622	0.6600057
25	0xbeaa93d1	-0.333159
26	0xbf99f6d9	-1.2028457
27	0x3ea63378	0.32461143
28	0xbf74401c	-0.95410323
29	0x3f6dc80c	0.9288337
30	0x3d2b2620	0.041784406
31	0xbe2e2a50	-0.17008328

linear_one.bias f4 [32]
0	0x3d0f2320	0.034945607
1	0xbf36f3a1	-0.714655
2	0x3d45d25b	0.048296314
3	0xbe1350d8	-0.14386308
4	0xbe70f768	-0.23531878
5	0xbea69d88	-0.32542062
6	0xbee58c30	-0.44833517
7	0xbf3ec09f	-0.74512666
8	0x3e2804d2	0.16408089
9	0xbf1c67de	-0.6109599
10	0xbf21013f	-0.62892526
11	0xbf776af4	-0.9664757
12	0xbf33dc28	-0.70257807
13	0x3e7f3bd9	0.24925174
14	0xbf40177c	-0.75035834
15	0x3eeafc33	0.45895538
16	0xbf5a47ce	-0.85265815
17	0xbed7d0f2	-0.421516
18	0xbbe92500	-0.0071150064
19	0xbf4bfa40	-0.79678726
20	0x3f6a848a	0.9160849
21	0xbe949c7a	-0.29025632
22	0xbecf03dc	-0.40432632
23	0xbf05aa2b	-0.5221278
24	0xbe673433	-0.22578506
25	0x3ca7e622	0.020495478
26	0x3cef5da8	0.029219463
27	0xbea8c568	-0.3296311
28	0xbf31fc3b	-0.695255
29	0xbf71f07e	-0.94507587
30	0xbf6d073a	-0.9258915
31	0xbe8a26fc	-0.26982868

linear_two.weight f4 [2, 32]
0	0xbccd38ab	-0.025051435
1	0xbeefd5e2	-0.46842867
2	0xbc46499c	-0.012102511
3	0x3e0fbfb5	0.14037974
4	0x3db34d96	0.08755033
5	0x3e43f5c0	0.19136715
6	0xbd8d4ae6	-0.06899051
7	0x3ee6ab22	0.4505244
8	0xbddbb5a6	-0.10728006
9	0x3ef16005	0.4714357
10	0xbe28c821	-0.16482593
11	0xbe05358d	-0.13008709
12	0x3e232693	0.15932684
13	0xbe954d57	-0.29160568
14	0xbe004e07	-0.12529765
15	0xbefc5fad	-0.49291745
16	0x3dbbec1a	0.09175892
17	0xbe09b921	-0.13449527
18	0x3cbbabe0	0.022909105
19	0x3d37703c	0.04478477
20	0xbed07455	-0.40713754
21	0x3de1436a	0.10999186
22	0x3d85330e	0.065038785
23	0xbf1f6067	-0.62256473
24	0x3dfa1a5e	0.122120604
25	0xbd8149d5	-0.063129105
26	0xbd8c91e6	-0.068637654
27	0x3cd2b618	0.025721595
28	0xbee6d402	-0.45083624
29	0xbdad400c	-0.084594816
30	0xbdf8decc	-0.1215187
31	0x3e2df66d	0.16988535
32	0xbd6faa22	-0.05851186
33	0xbecd7260	-0.40126324
34	0xbd2affd9	-0.0417479
35	0xbd8aadcc	-0.067714304
36	0x3c7a5ba0	0.015280634
37	0x3e9277d1	0.28607038
38	0x3dab308a	0.083588675
39	0x3f0c3ed4	0.5478337
40	0xbe080feb	-0.13287322
41	0x3ee219a7	0.44160196
42	0xbdd8441d	-0.105598666
43	0x3d3249f4	0.04352756
44	0x3d7741b8	0.06036541
45	0xbee21a8a	-0.44160873
46	0xbe0abcfc	-0.13548654
47	0xbf210b41	-0.629078
48	0xbd162dd8	-0.036664814
49	0xbd9b53e6	-0.07584362
50	0xbe28d24e	-0.16486475
51	0xbdd08b50	-0.10182822
52	0xbf3fe402	-0.7495729
53	0x3e77471c	0.2414822
54	0xbcaf2958	-0.021382019
55	0xbf12bfb5	-0.5732377
56	0x3f0d26ec	0.55137515
57	0xbd1dde52	-0.0385421
58	0xbdcd1a35	-0.10014764
59	0x3e1ad9af	0.15122102
60	0xbf14538e	-0.57939994
61	0x3dbdb33a	0.092627004
62	0x3dc0f462	0.09421612
63	0x3dd530d6	0.10409705

linear_two.bias f4 [2]
0	0xbda9ed2b	-0.08297189
1	0xbe86e916	-0.26349705
