model.pth (torch, 1631 bytes, 3 tensors)

linear_one.weight f4 [16, 1]
000000 84 e1 3f 3f a0 06 62 be 40 ed d8 3c fd c3 28 3f
       0.74953485 -0.2207284 0.026480317 0.65924054
000010 f0 da fb bd 24 4c 85 be 61 1d b1 be 6b c0 7d 3f
       -0.122976184 -0.26034653 -0.34592727 0.9912173
000020 8f da da be f0 09 a9 3e 8f 95 90 3e 90 0b 87 be
       -0.42744872 0.33015394 0.28239104 -0.2637601
000030 d4 be 0c bf 1c b2 6b bf 44 f8 0a 3c be 9b fd 3e
       -0.5497868 -0.9206865 0.008482043 0.49532884

linear_one.bias f4 [16]
000000 f4 65 eb 3e 44 aa 7e bf 1e 39 33 bf 8f 0c 61 3f
       0.45976222 -0.99478555 -0.7000903 0.8790979
000010 68 43 04 be f6 18 26 3e 88 f5 23 3f b3 d1 c9 3e
       -0.12916338 0.1622046 0.64046526 0.394178
000020 89 44 59 3f 10 05 53 3f 5f bc ee 3d 7a a5 0c bf
       0.848702 0.824296 0.11657023 -0.5494
000030 c4 02 84 be 74 2a c1 be 69 bc bf 3e 00 fe 02 bf
       -0.2578336 -0.37727702 0.37448433 -0.51168823

linear_two.weight f4 [1, 16]
000000 a0 3f 47 3e 46 23 22 3e 68 89 9f 3d dc 64 34 be
       0.19457865 0.15833768 0.0778988 -0.176166
000010 c8 a2 bb bd f1 4a 95 3d d1 12 f5 bc 58 fb b3 3d
       -0.091619074 0.072896846 -0.029916199 0.087881744
000020 ea 8c 53 be b8 ce aa 3d 0b 1c 0e 3e 5c f0 80 3d
       -0.20659223 0.0834021 0.13877885 0.06295845
000030 80 9d 78 bb 40 06 9b bb aa 5c 34 bd 14 44 2b bc
       -0.0037935674 -0.0047309697 -0.044033684 -0.010453243
